model/model.pth (torch, 240685 bytes, 52 tensors)

conv.weight f4 [16, 3, 3, 3]
000000 0c ff e0 3d 5a 25 14 3e 9f eb d5 3d a0 ac 62 be
       0.10986146 0.14467373 0.10445332 -0.22136164
000010 e8 c6 10 be 9c 91 47 3b 7e 40 38 be 98 37 1a bd
       -0.14138377 0.003045178 -0.17993352 -0.037650675
000020 0b 21 b0 3b 3f e4 81 3d d6 35 6d 3e 3a 5b 60 bd
       0.005375033 0.063423626 0.23165068 -0.0547745
000030 5b fe 39 3d 42 c2 7d 3d 56 17 a6 3d d9 34 29 be
       0.045408588 0.061952837 0.0810992 -0.16524066
000040 68 e8 b2 bd c3 ee 84 3d 82 e2 97 3e f1 d3 9f bd
       -0.08735734 0.06490853 0.29665 -0.078040965
000050 5b 52 40 3d c7 15 e3 bd 08 ea 9b 3d 75 a9 c3 bd
       0.04695354 -0.11088138 0.07612997 -0.09553806
000060 aa 1b 1b 3c aa 3b f3 bd bb 87 02 be d6 f5 09 be
       0.009467045 -0.118766144 -0.1274709 -0.13472685
000070 cc d3 2f 3e 21 ea 0e 3e 24 cc fd 3d fb 9b 1c be
       0.17170638 0.139565 0.12392452 -0.15293877
000080 b5 c3 47 bd 83 72 1d bd bf 45 26 3e 6b 7c 92 bc
       -0.048770625 -0.038439285 0.16237544 -0.017881593
000090 7c 67 6d bd b4 5f e5 bc c3 1d a4 bd 4e 65 61 3d
       -0.05796002 -0.027999736 -0.08013489 0.055028252
0000a0 ce 9a 9d 3d 83 34 9d bd 30 10 89 bd 7f e6 3b bd
       0.07695542 -0.076760314 -0.06692541 -0.045874115
0000b0 6c a1 4b 3d 6d 24 44 be eb 00 c9 3c 50 67 d9 3c
       0.04971449 -0.1915452 0.02453657 0.026538521
0000c0 ad 11 5f be 5b 10 27 be 52 f1 09 be 27 03 3f 3d
       -0.21784087 -0.16314833 -0.13470963 0.046633866
0000d0 de 8b 16 be 70 99 32 be ed 89 ba bd dd b9 22 be
       -0.14701793 -0.17441344 -0.091083385 -0.15891214
0000e0 31 46 04 3e 6e 4e eb bd ca 8d 6e 3d 21 fe 9f bc
       0.12917401 -0.11489569 0.05824069 -0.019530358
0000f0 b8 bd 86 3d d9 f3 37 3d 34 cf 97 3c 18 d6 2b 3e
       0.06579155 0.044910286 0.01853142 0.16780889
000100 69 74 0d bd 17 bf d9 bd c0 86 0b 3e 32 68 a9 bd
       -0.034534846 -0.106321506 0.13625622 -0.08271827
000110 ea 8f b3 bc b0 b5 d1 bd 63 d0 0e 3e e6 55 6e bd
       -0.02191921 -0.10239732 0.1394668 -0.058187388
000120 f2 81 51 3d c0 d0 ae bd c8 f8 84 3c bf fc c0 bd
       0.051149316 -0.0853591 0.01623191 -0.094232075
000130 99 7f e9 bd a1 72 41 3e 30 1b 7f bd 6c 9c 9f bd
       -0.114012904 0.18891384 -0.062281787 -0.07793507
000140 70 1c 54 3e 9d 2c 68 be ab 24 34 be 79 d0 b1 3d
       0.20713973 -0.22673269 -0.17592113 0.08682341
000150 ba 79 ee 3d b2 90 12 be b9 08 39 be 15 7a 98 bc
       0.11644311 -0.1431301 -0.18069734 -0.0186129
000160 bb 0b 4c 3c fa a2 b7 bc 2c 34 aa 3d 68 c0 33 bd
       0.012453969 -0.02241658 0.08310732 -0.043884665
000170 f6 a9 85 be 19 d9 97 bd 45 bc 0f be 04 fe 6a 3c
       -0.26106232 -0.07414455 -0.14036663 0.014342789
000180 b7 a9 0c bd bc 7a 13 bd af 9b cd 3c 4f 10 6e 3e
       -0.03434154 -0.03600572 0.02509865 0.23248409
000190 64 61 6a bd b9 9f ad bd 91 b1 0a be 3b cd 13 be
       -0.057221785 -0.0847773 -0.13544299 -0.14433758
0001a0 59 d5 48 3d a3 4c 73 bd 60 78 aa 3c 89 46 17 3d
       0.04903159 -0.05939926 0.020809352 0.036932502
0001b0 d6 b1 40 be 56 23 ca 3d ef 20 39 3e 30 01 b6 bd
       -0.18817839 0.09870021 0.1807897 -0.08886945
0001c0 90 0f 28 3e 4a a1 db 3d 46 a1 de bd 0f 25 2a be
       0.16412187 0.10724123 -0.10870604 -0.16615699
0001d0 74 3a 7a bc bd ce 8d bd 66 f9 73 3c 12 53 01 3e
       -0.015272725 -0.06924198 0.014891004 0.12629345
0001e0 53 ab ae 3d 19 ed 14 3e 66 48 28 3d bd 0d fe 3c
       0.08528771 0.1454357 0.04108467 0.03101241
0001f0 20 8f b9 bd 37 18 d3 bc 1f 29 08 bd 0c 2c 2a be
       -0.09060502 -0.025768382 -0.03324234 -0.16618365
000200 c1 29 41 3d 05 91 3a be 43 d9 a3 3d 0c fb 41 3e
       0.04715896 -0.18219383 0.08000424 0.18943423
000210 fa ab 32 bd 7b 44 9d 3c 2b 73 ce bd 10 84 e7 bb
       -0.04362104 0.019197693 -0.1008056 -0.0070653036
000220 38 5e 51 be c3 c2 19 be b3 e4 0d 3e fe e9 39 3c
       -0.20446098 -0.15015702 0.13856773 0.011347292
000230 a0 e8 99 bd 2c 72 77 3d 20 af 1c be 8c a1 69 3e
       -0.07515073 0.060411617 -0.1530118 0.22815531
000240 44 b8 66 3d 51 3b 1f be c0 74 de 3d d7 bc c8 3d
       0.056328073 -0.15549971 0.10862112 0.09801643
000250 d2 47 64 be 16 be 8c 3d 99 28 b4 bd 1e 9f 2c 3e
       -0.22293022 0.068721935 -0.08796806 0.16857573
000260 8c f8 a0 3d e8 8a ca 3d 53 ce 05 be 1c 37 da 3b
       0.078599066 0.098897755 -0.13066988 0.0066594016
000270 4a 66 ff bd 1e 39 07 3e 77 e2 b6 3d 96 67 c9 bc
       -0.12470682 0.13205382 0.089299135 -0.024585526
000280 60 65 2b bb c5 f4 17 be 6c a3 4e bc 77 e9 29 be
       -0.0026152954 -0.14839466 -0.012612205 -0.16592966
000290 f7 2b 05 3e 13 26 3c 3b 7f cc c1 3c 5a 3c cf 3c
       0.13005053 0.0028709217 0.023657082 0.025297333
0002a0 09 24 f4 bb 50 91 17 be 31 e7 f4 3d a7 e9 02 be
       -0.007450585 -0.14801526 0.11958159 -0.12784444
0002b0 5c fe 04 bb 83 69 59 3e db f8 6d bd 50 95 6e be
       -0.0020293212 0.21231656 -0.058098655 -0.23299146
0002c0 40 ed ba bd 4a 87 fe bd d8 98 f4 3d a9 51 ff bd
       -0.09127283 -0.12428148 0.11943215 -0.12466747
0002d0 04 ca 1a be 2f a1 f2 bd 33 01 9c 3c 03 35 3c be
       -0.15116125 -0.118471496 0.01904354 -0.18379597
0002e0 6e 5b ca 3d e8 d5 cc bd cf 3c 48 3e 39 2d be 3d
       0.0988072 -0.10001737 0.19554447 0.09285969
0002f0 b5 be ee 3d 0a 1b 2d be e6 96 29 be fc cf d1 3d
       0.11657468 -0.16904846 -0.1656147 0.10244748
000300 2f 7c 1b be 9f 10 4f 3d e2 24 df 3c 38 59 c4 3b
       -0.15184091 0.05055296 0.027239267 0.005992081
000310 57 01 c4 b9 76 16 54 3e d1 0f 69 3c c5 c7 2f 3d
       -0.00037385031 0.20711693 0.014224962 0.042915124
000320 1e 67 29 be 73 4e 47 be 87 c7 4f 3d f6 9f 51 3e
       -0.16543242 -0.1946352 0.050727393 0.20471177
000330 84 cc a0 3c 64 19 af 3d b0 89 f1 3d d2 3b 2d 3e
       0.01962877 0.08549765 0.1179384 0.16917351
000340 6f a9 2f be c9 e9 2a bd d9 81 15 3e 29 8f 67 bd
       -0.17154478 -0.04172686 0.14600314 -0.056533013
000350 a7 88 21 3e b7 03 e1 bd 42 fe 14 be 06 15 07 bd
       0.15774785 -0.10987037 -0.14550117 -0.032979034
000360 74 89 f2 3d 04 47 fb 3d 22 25 3c 3d 29 99 f7 bd
       0.11842623 0.122694045 0.04593385 -0.1208976
000370 aa 6d e0 3d a4 31 a3 3d 63 b3 89 bd d7 56 2b be
       0.10958417 0.079684526 -0.067236684 -0.16732346
000380 ef a1 11 be d7 21 63 3c a5 2c 2f 3e a5 28 b7 3d
       -0.14221929 0.0138630485 0.17106874 0.08943299
000390 df da 2b bd ac 3f 80 bd c9 7a 26 be bc 7c fb 3b
       -0.04195678 -0.062621444 -0.16257776 0.0076747816
0003a0 cb f3 a9 bc b2 6c b2 3c ae b2 86 3e 7e cb 4b 3b
       -0.020746132 0.021780346 0.26308197 0.0031096633
0003b0 a4 a6 22 bd bc 80 f6 3d f7 88 e3 bd 88 14 e5 bd
       -0.039709702 0.12036273 -0.11110108 -0.11185557
0003c0 74 65 d5 bd a4 fa b7 3c 72 ac 40 bd dc aa 3d 3e
       -0.10419741 0.022458382 -0.047039457 0.18522209
0003d0 3d 86 e8 3d 10 f6 06 be d1 11 cf bd 66 48 fd 3c
       0.11353729 -0.13179803 -0.1011082 0.030918311
0003e0 e1 e8 ef bd d3 69 a0 bd d3 d6 3a 3e ba 65 cd bd
       -0.1171434 -0.07832684 0.18246011 -0.100291684
0003f0 74 b1 27 3d ac 67 ef 3d 81 1a 6b be 2a 96 2e 3e
       0.040940717 0.11689696 -0.22959329 0.1704947

bn.weight f4 [16]
000000 5a e0 76 3f 5f 59 58 3f 9e a0 73 3f 33 03 5e 3f
       0.96436083 0.8451137 0.9516696 0.8672363
000010 a4 0b 6a 3f ff 40 60 3f a1 91 5c 3f d2 e4 7c 3f
       0.9142401 0.87599176 0.8615971 0.9878665
000020 df 09 66 3f 22 d5 8c 3f 11 8a 81 3f d5 6e 86 3f
       0.8985881 1.1002543 1.012026 1.0502573
000030 4f 0f 8a 3f a4 51 7d 3f c4 32 56 3f 0f 13 69 3f
       1.0785922 0.989527 0.8367121 0.91044706

bn.bias f4 [16]
000000 9b cb f9 3d c6 b9 b6 bd cd c4 3f 3e 58 ab ae bd
       0.12197038 -0.08922152 0.18727417 -0.08528775
000010 4f 9a c3 3c 4b f5 27 bd 88 ec 71 bd 8d e0 fc 3c
       0.023877291 -0.041005414 -0.059063464 0.030868793
000020 ca fe b6 3d f7 11 18 3d 28 ac 65 bc a4 ae bc bd
       0.08935316 0.037126508 -0.014018096 -0.092129976
000030 39 5f 5d bd d8 3e ad 3d e4 46 e0 bd 3d 6e 67 ba
       -0.05404589 0.08459252 -0.10951021 -0.00088283775

bn.running_mean f4 [16]
000000 ed 31 7c 3b fa 70 21 be d8 b1 4b 3c 97 08 fe 3d
       0.0038481907 -0.15765753 0.012432538 0.12403982
000010 89 ed 44 bd 52 1c 33 3b 07 42 1f 3d de 1f 27 bc
       -0.048078094 0.0027330113 0.038881328 -0.010200469
000020 2d 58 ce 39 9f bd 86 bc fe b8 77 3d d0 70 84 3c
       0.00039357078 -0.01644784 0.060479157 0.016167074
000030 af 98 22 3c fa 41 5c 3c 3b 2f 4b 3c 77 c9 b5 3d
       0.009924098 0.013443464 0.012401397 0.08876317

bn.running_var f4 [16]
000000 37 d0 99 3d 90 66 24 3f a0 93 30 3c d5 5b 6f 3f
       0.07510417 0.64219 0.010777384 0.934995
000010 68 de 87 3d f5 84 df 3c bc cf 49 3e 34 29 37 3d
       0.066342175 0.027285079 0.1970815 0.04471703
000020 82 5a 5c 3d cd 0c 89 3d fb c2 c7 3d a7 cc 67 3d
       0.053797252 0.06691895 0.097539864 0.056591656
000030 3a aa 48 3d de 44 2a 3d a8 b8 17 3e 49 6f ef 3c
       0.048990466 0.041569583 0.14816535 0.02922787

layer1.0.conv1.weight f4 [16, 16, 3, 3]
000000 72 5d ed bd 46 46 1b bd 21 b4 bc 3d 49 b4 35 3d
       -0.11590089 -0.037908815 0.09214044 0.044361386
000010 e2 4c 9b 3d b5 04 17 3d df 61 c1 bd 3f ee 58 bd
       0.075830236 0.036869723 -0.094424956 -0.052961584
000020 ec 55 81 bd 9f f5 85 bd 21 0d 1c 3d ce 19 0c bd
       -0.063152164 -0.06540989 0.03809846 -0.034204297
000030 9b 58 83 3d 46 f6 fd bc 97 19 51 3d 23 72 3b bd
       0.064133845 -0.031001221 0.051049795 -0.045763146
000040 a3 4b f1 3c 14 a3 71 bd c3 da 8e 3d 5b 42 2b bd
       0.029455012 -0.058993414 0.06975319 -0.04181133
000050 a8 24 25 3d 54 2c 4f 3d 2c 73 22 3c 02 40 08 3e
       0.04031816 0.050579384 0.009915154 0.13305667
000060 5b 89 cd bc a9 9b 11 bd 57 a6 ad bd 84 49 58 bd
       -0.02508991 -0.03554884 -0.084789924 -0.052804485
000070 67 d7 2a 3d 80 71 74 bd 6e b6 5b bd 93 b0 ad 3d
       0.04170933 -0.059678555 -0.053640775 0.084809445
000080 1c c1 30 3d 42 26 30 bd 7c 82 8d bb 72 69 ec bc
       0.043152913 -0.043005235 -0.0043185335 -0.028858874
000090 b9 6b 86 3d 88 cc e7 3c 58 cf db bd 4b 90 5f bd
       0.06563515 0.02829577 -0.10732907 -0.054580968
0000a0 ae 55 e9 bd 77 1d d9 bc 39 0b 87 3d 38 e8 81 3d
       -0.11393295 -0.026503308 0.065939374 0.0634312
0000b0 a5 e9 9c 3c ab ef 12 3d 8e 9d cc bd 9c 92 97 3d
       0.01915438 0.035873096 -0.09990989 0.074010104
0000c0 46 c7 58 bd c9 a0 8f bd 0e ba 8c 3d 77 7a 51 3b
       -0.052924417 -0.07013089 0.068714246 0.0031963864
0000d0 ae a9 94 bd 00 b8 64 bd 63 8b 4c bc 78 1e 4d 3d
       -0.07258926 -0.05583954 -0.012484404 0.050077885
0000e0 f3 0a 90 3d 06 32 b3 bc 00 5c 4f bd 1d a2 38 3d
       0.070333384 -0.021874439 -0.050624847 0.04507648
0000f0 83 c0 25 3d 0c 29 bd 3c e5 5a 4a bd 6a 59 38 bd
       0.040466797 0.023090862 -0.04940309 -0.045007147
000100 77 f9 0a be 74 4f dd 3c f9 fe 87 bd 54 20 91 ba
       -0.13571726 0.027015425 -0.06640429 -0.0011072257
000110 fa a4 a8 3d 2e 8c e6 3c 6c df 6f bd 8c 83 a5 3c
       0.08234592 0.028143015 -0.05856268 0.020204328
000120 04 03 ed bb b3 1a 1a 3c f3 2d 68 3d 46 c0 2f 3d
       -0.0072330255 0.00940578 0.056684446 0.042907976
000130 45 8d 67 3d b3 16 af bd f0 51 81 bd 0e cc 94 bd
       0.05653121 -0.085492514 -0.063144565 -0.07265483
000140 2c db c9 3c e8 fd 10 3c f2 cc 0b 3e 41 ef 3e 3d
       0.024640642 0.0088495985 0.13652399 0.04661489
000150 68 07 03 bd 75 72 30 3e 55 bd be bd c9 a0 1b bd
       -0.031989485 0.17231162 -0.09313456 -0.037995134
000160 5a 10 48 3c 78 7e 01 bc 47 06 7c bd 5e 4a 62 bc
       0.01221093 -0.007903688 -0.061529424 -0.013811676
000170 fc 45 6f 3b 20 05 57 bd 70 31 b3 3d 1a 9f 36 bc
       0.003651022 -0.052495122 0.08749664 -0.011146331
000180 ce a6 45 bd 27 65 31 3d e3 0f cd bd 74 d9 de bc
       -0.04825478 0.043309357 -0.10012796 -0.0272033
000190 d7 40 f0 bd 85 c6 65 3d 4d 69 97 3d 59 99 ca bc
       -0.11731117 0.056097526 0.073931314 -0.024731325
0001a0 39 48 ee 3d e3 35 81 3d a1 51 9c bd 42 4f 8f bc
       0.11634869 0.06309106 -0.07632757 -0.017493848
0001b0 0c d9 3a bd 13 da 82 3d b7 97 c5 3d 3d b2 f6 bd
       -0.04561715 0.063892506 0.09648078 -0.12045715
0001c0 12 fc 64 3c 6d 71 19 3d bf 6a b3 bd e0 30 cb 3d
       0.013976114 0.037461687 -0.087605946 0.099214315
0001d0 1c de 82 bd 4e f4 07 3c 55 51 3c 3d 85 8d 64 3c
       -0.0639002 0.008297993 0.045976 0.0139497565
0001e0 40 30 80 bd f9 29 ba 3d 8c 4b 0d be 35 6e 0f be
       -0.06259203 0.09090037 -0.1379835 -0.14006884
0001f0 30 f2 80 bd 1a 18 2a 3d 07 b4 49 3d d7 f2 c4 bc
       -0.062961936 0.04152689 0.049243953 -0.024041576
000200 17 a9 97 bd 97 0f 8a 3d b5 05 ad bd d2 63 10 3d
       -0.07405298 0.06741255 -0.08448354 0.035251446
000210 69 86 fc 3c 32 60 ac 3d c3 4e ca 3d 99 ab 1e bd
       0.03082581 0.08416785 0.09878304 -0.038737867
000220 ba c9 86 3c f4 4b 13 3d bf 86 cb 3d bd c0 39 3d
       0.016453613 0.035961106 0.0993781 0.045349825
000230 51 ac 57 3a 65 d7 b2 bd 26 7c 66 bd 4b c7 9d bd
       0.0008227276 -0.087324895 -0.05627074 -0.07704028
000240 00 e3 2e bd 23 a5 87 bd 57 7b 4c 3d ce 69 a9 3d
       -0.042696953 -0.06623294 0.049922314 0.08272134
000250 59 62 78 3d 7c fe 2e bd 4e 9c e8 3d 69 f0 30 3d
       0.060640667 -0.042723164 0.11357938 0.043198023
000260 13 f8 23 bc b6 38 d6 3c 34 26 9d bd 42 2c 5d 3d
       -0.010007876 0.026150089 -0.07673302 0.053997286
000270 b2 d2 07 bd ba 21 80 bd 3b ae fe 3c 93 12 8e ba
       -0.03315992 -0.06256433 0.031088939 -0.0010839276
000280 2c 59 47 3d aa e5 1e bd 0c d8 ba bd 40 29 03 be
       0.048669025 -0.038793243 -0.09123239 -0.12808704
000290 f1 4b 9c bc 14 33 b9 bd e3 3b 26 3c 6d 05 b7 3d
       -0.01907918 -0.090429455 0.010146114 0.08936582
0002a0 9b eb 3d 3c bb 71 eb 3d c8 b5 1d 3d d0 a5 2d 3d
       0.011591817 0.11496302 0.03850344 0.04239446
0002b0 af 4b 23 bc 0d 0b cb 3c 8a 58 4a 3d e0 a9 10 3d
       -0.009966775 0.024785543 0.049400844 0.035318255
0002c0 bd 5d 66 3a 62 40 30 bd c7 a1 a4 3d 0f f4 cf 3c
       0.0008787772 -0.04303015 0.08038669 0.02538493
0002d0 d6 b0 1c 3d b4 e3 ac 3d 91 3a 66 bd 09 da 49 bd
       0.03825458 0.084418684 -0.056208197 -0.0492802
0002e0 cb d8 8b 3c 2b 71 7b bd 79 87 95 bd e5 bf fe bc
       0.017071148 -0.061387222 -0.0730123 -0.031097362
0002f0 18 49 a0 3c 1b e5 23 3d ef 0e 48 3c 07 3f a9 3c
       0.019566104 0.040013414 0.012210592 0.020659937
000300 0b fd 58 bd 3d 83 12 bd 33 9b 5f 3d 97 49 3d bd
       -0.052975696 -0.03576969 0.05459137 -0.04621276
000310 47 85 b8 3d 6d 9e 23 bc d9 3f 6d bc d2 c5 99 3d
       0.09009796 -0.009986502 -0.0144805545 0.07508434
000320 37 0c 3e 3d 79 3c 2b bc ee 6d d1 bc 4e 0d 4a bd
       0.046398368 -0.0104514295 -0.025565114 -0.049329095
000330 76 7e a9 3d dc 84 85 3b 4f a6 59 bd e8 2f 65 bd
       0.08276074 0.004074676 -0.05313712 -0.05595389
000340 00 d4 8d bc 15 63 4a 3c bb 44 30 3c 05 46 59 3d
       -0.017313004 0.012352725 0.010758574 0.05304529
000350 70 c9 48 bd 23 e6 94 bd e8 36 58 3c eb 3d 3c bb
       -0.04902023 -0.072704576 0.013196684 -0.002872343
000360 7a 79 5f bb b4 24 25 3d 91 59 48 bd 84 28 ae 3d
       -0.0034099505 0.040318206 -0.048913542 0.085038215
000370 75 a5 a0 3d be 5a 96 3c dc a7 32 3d 42 ba 7d bc
       0.078440584 0.018353816 0.043617114 -0.015486302
000380 a4 f2 b7 bd 08 88 32 3d f0 ee 10 bd c9 bd a9 3b
       -0.08981827 0.04358676 -0.03538412 0.005180095
000390 a1 05 5d bd 0f f9 a3 3d a6 1f 0c bd 9e aa 33 bd
       -0.053960446 0.080064885 -0.03420987 -0.043863885
0003a0 82 3e c0 bd a7 c6 8b bc fd 3e b7 3d b1 54 76 3d
       -0.093869224 -0.017062498 0.08947561 0.06013936
0003b0 b3 31 57 3d 0c f3 93 3d 30 db 6b 3d a9 f4 20 bd
       0.05253763 0.07224092 0.05758208 -0.039295826
0003c0 89 06 59 bd 87 f8 a3 bd 29 5b eb bc 42 b2 8a bd
       -0.052984748 -0.08006387 -0.028729992 -0.06772281
0003d0 23 19 8f bd d6 3e 12 3d ec a5 b1 3b 5c 3f f4 bc
       -0.06987216 0.035704456 0.0054213908 -0.029815368
0003e0 de 9d 79 bc b5 57 1c bd a9 77 9b 3a 46 24 79 bd
       -0.015235392 -0.03816958 0.0011861223 -0.06082561
0003f0 ac 38 c9 3d c8 87 19 3d 0e 94 ad 3c d7 56 6e 3d
       0.098252624 0.037483007 0.021188762 0.058188286

layer1.0.bn1.weight f4 [16]
000000 b4 35 85 3f 34 d8 8b 3f e0 90 6e 3f 44 24 82 3f
       1.0407014 1.0925355 0.9318981 1.0167317
000010 3a 85 79 3f 35 56 8e 3f 45 36 6c 3f 7a 97 80 3f
       0.9746891 1.1120058 0.9227031 1.0046227
000020 ee f8 80 3f 1e 3c 85 3f e2 a4 7a 3f 90 a9 7e 3f
       1.0075967 1.0408971 0.9790784 0.9947748
000030 64 89 7e 3f 14 62 85 3f 43 52 7b 3f 66 15 5f 3f
       0.9942839 1.0420556 0.98172396 0.87142026

layer1.0.bn1.bias f4 [16]
000000 3c 63 3c b9 eb ab e6 3c ab c1 72 bd fd cf 46 3b
       -0.00017966045 0.028158149 -0.059266727 0.0030336373
000010 1e 34 1c bd 8b 98 35 bd a1 a6 30 bd 61 8a b8 bd
       -0.03813564 -0.04433493 -0.04312766 -0.09010769
000020 53 e8 d8 3b 7d 18 52 3c 87 e3 8c 3c 20 44 32 bd
       0.006619492 0.012823221 0.017198337 -0.043522
000030 fc a1 3a 3d 85 b3 45 3d 00 95 f8 bc 50 cd bc bd
       0.045564637 0.048266906 -0.030344486 -0.09218848

layer1.0.bn1.running_mean f4 [16]
000000 b0 4c 0e be f2 60 d0 3c 66 b4 e8 be a3 91 df be
       -0.13896441 0.025436852 -0.45450133 -0.436658
000010 cc b6 2a 3e 81 be 13 be e4 d9 00 bf 91 7d a9 bd
       0.16671294 -0.1442814 -0.50332475 -0.08275903
000020 f7 dd d9 be 0e d5 3d bd 11 5b bd bc 65 99 10 bd
       -0.42552158 -0.046345763 -0.023114713 -0.03530254
000030 f6 69 66 3e 4a 55 ab 3d bd 0c 23 bd 67 64 83 bc
       0.22501358 0.08365877 -0.03980707 -0.016039087

layer1.0.bn1.running_var f4 [16]
000000 1c ea 61 3e 0a 13 4c 3e bc b9 3b 3f d2 ed d3 3e
       0.22061962 0.19929138 0.73330283 0.4139238
000010 5a 05 dd 3e 1c 34 f8 3e 6d cc 78 3f 89 f3 f6 3e
       0.43168145 0.48477256 0.9718693 0.48232678
000020 06 63 8d 3e 48 3a d5 3e 5f 9b 95 3e f9 68 ab 3e
       0.2761461 0.41646028 0.292201 0.33478525
000030 9a f5 15 3f 0d a1 fd 3e f9 3f 37 3f a9 9c 2b 3f
       0.58577883 0.49536934 0.7158199 0.6703592

layer1.0.conv2.weight f4 [16, 16, 3, 3]
000000 57 72 af bc 63 1e b4 3d 0e b3 a0 3c e3 74 5d 3c
       -0.021416826 0.08794858 0.01961663 0.0135166375
000010 6b e4 8f bc 5f 2f 9e bd ee 3a 47 bd a0 4d ae 3d
       -0.017564973 -0.07723879 -0.048640184 0.085108995
000020 a1 80 c4 bd 3e 87 3d 3e 25 3b ef bc 9c 76 45 bd
       -0.095948465 0.18508622 -0.029203007 -0.048208818
000030 97 f0 f1 3d 5d 6a 65 bd bf 5d 9c bc 4f bd 77 3e
       0.11813467 -0.05600964 -0.01908767 0.24193309
000040 3b 2f b4 bc c5 80 09 bc 90 0a ea bd 39 32 b3 bc
       -0.021995177 -0.008392517 -0.11427796 -0.021874534
000050 0b 24 bd bd 1f a2 15 3d 90 bd c8 bc eb 29 a0 bd
       -0.0923539 0.036531564 -0.024504453 -0.07820495
000060 6e 9c 3d 3c 23 76 aa 3c 84 28 71 3c 2a 46 22 3d
       0.01157294 0.020808285 0.014719132 0.039617695
000070 f5 db 5f bc 98 61 ed 3a 24 50 5f 3d a2 94 15 3d
       -0.013663282 0.001811075 0.054519787 0.0365187
000080 41 76 91 3d 60 cb 4a bd 3d 94 ec bc e3 f6 01 3d
       0.07102633 -0.04951036 -0.02887928 0.03172959
000090 47 7d f8 3d f8 9e 27 bd 77 07 5c 3d 31 a5 c7 3d
       0.1213327 -0.04092309 0.053718057 0.09748305
0000a0 d1 3b ae 3d cc cd 95 bd b5 b2 c2 3b b9 89 4d 3d
       0.08507503 -0.07314643 0.0059417137 0.05018017
0000b0 c3 5f ac 3a ab 7a a4 3d 03 79 02 3d f4 e1 f5 bc
       0.0013151098 0.080312096 0.031853687 -0.03001497
0000c0 b2 84 79 3d e8 16 77 3a c2 f1 8d bc 85 ee be 3c
       0.060917564 0.00094257155 -0.017327193 0.023307094
0000d0 d6 7b a7 bc 9c ab 3b bd f1 e0 86 3d 4f d9 90 3d
       -0.020444792 -0.045817956 0.06585873 0.07072698
0000e0 28 9d 9f bd ac e6 0b 3d 21 e1 08 bd e3 72 b4 3d
       -0.07793647 0.034155533 -0.033417825 0.088109754
0000f0 db 43 1c 3d 72 a0 e0 3c ba db 63 bd 3e e5 38 ba
       0.03815065 0.027420256 -0.05562947 -0.0007053203
000100 c1 82 b5 3d d4 61 5a 3d 8e 45 cb bd 19 1a f8 bc
       0.0886283 0.053315952 -0.09925376 -0.030285882
000110 1a 1f a8 3c ba 16 fb 3c 5e 41 88 3d ae f7 a7 bd
       0.020522643 0.030650485 0.06653093 -0.08201538
000120 0f b6 83 3c 32 51 31 bc d8 ea 38 3d c2 2b f9 bc
       0.016078023 -0.010822581 0.04514584 -0.030416373
000130 94 9a 15 3d db f8 c2 3d 8d e0 b5 3d 35 c9 d2 3c
       0.03652437 0.09520122 0.0888072 0.025730709
000140 db 4b 29 bd ad a2 1d bb 94 31 82 bd b6 ea a2 bd
       -0.041332107 -0.002405326 -0.063571125 -0.07954924
000150 c2 ad b2 3d b4 06 47 bd a3 cc 65 bd 09 6c 1f 3e
       0.08724548 -0.048590377 -0.05610336 0.15568556
000160 50 9a af bc de eb 97 bd 93 67 34 3d 53 ca b0 bd
       -0.021435887 -0.07418035 0.04404409 -0.0863234
000170 25 1c a2 bc b3 f9 c2 3d f3 05 51 3d 58 a8 31 3b
       -0.019788811 0.095202826 0.051031064 0.0027108397
000180 21 b4 8f bc f7 24 36 bd 3c f5 2b 3b 2b 0f 5a bd
       -0.017541947 -0.044468846 0.00262387 -0.05323712
000190 d9 ea 30 bd cf 13 ca 3d 87 22 dd 3d 12 9f 91 3c
       -0.04319272 0.098670594 0.10797601 0.017776046
0001a0 dd 50 0f bd 81 41 e1 3d bb cc 03 bd 81 fa 2e 3c
       -0.034989227 0.10998822 -0.032177668 0.010679842
0001b0 ce 34 9e 3d 55 71 06 bb 3f cc 37 bd fe 32 1f 3d
       0.077249154 -0.0020514328 -0.04487252 0.03886699
0001c0 05 62 c5 bc e2 e2 bf 3c 12 5a c1 bb 26 3e 82 3a
       -0.02409459 0.023423616 -0.00590063 0.0009936735
0001d0 ef 04 71 bd c6 5d da 3d 9a 73 14 3d 0b 1a 06 3d
       -0.058842596 0.10662417 0.03624306 0.03273968
0001e0 05 e7 e7 3d 88 6b bc bd 91 85 2f bb bd e7 0c 3d
       0.1132336 -0.092001975 -0.0026782493 0.03440069
0001f0 1a 68 90 bd 05 75 be bd 28 f7 82 3c 12 31 b9 bd
       -0.07051106 -0.092996635 0.015986994 -0.090425625
000200 9a a3 13 be c5 48 1f 3b 7a 62 c7 bc 00 60 03 be
       -0.14417878 0.0024304849 -0.02433895 -0.1282959
000210 de 20 df 3d b0 be b0 bd 1b d8 ae bc 48 1f 75 3d
       0.10894941 -0.08630121 -0.021343281 0.059844285
000220 83 0a 42 bd 52 01 21 3c a4 e3 a6 3d dd 83 12 bd
       -0.047373306 0.009826975 0.08148888 -0.035770286
000230 3b 30 40 3d d0 32 b8 3d 7a 6e 52 3d c7 78 3d 3d
       0.046920996 0.08994067 0.05137489 0.04625776
000240 30 a7 15 3c 19 3d 9a bd 80 ff 56 3d fb 16 ec bc
       0.009134099 -0.07531185 0.052489758 -0.028819552
000250 fc 71 fa 3b 64 19 a9 3d ba 8d 1b bc dc 97 dd 3d
       0.0076429825 0.08256796 -0.009494239 0.108199805
000260 33 91 e1 bd 6c 58 de 3d 35 61 ae 3d f7 c7 09 3e
       -0.11014023 0.10856709 0.085146345 0.13455187
000270 64 10 93 3c a8 7d aa bc d6 95 97 3d af b9 0d be
       0.017952152 -0.02081187 0.07401626 -0.13840364
000280 c3 bd a8 bd b5 60 cc bd 71 d4 d2 bd 1b 97 a6 bd
       -0.08239319 -0.09979383 -0.10294426 -0.0813429
000290 b2 55 ec 3c 40 2e 14 3d c4 33 07 be 8d 1f 35 bd
       0.028849456 0.03617692 -0.13203341 -0.044219542
0002a0 86 43 4c bd 25 e1 48 bc 70 07 c2 bc 50 7c 19 3e
       -0.049869083 -0.01226071 -0.023685187 0.14988828
0002b0 bc 97 fc 3b 99 76 41 bc 66 f6 15 3d 38 ae 25 bd
       0.007708518 -0.011808061 0.036611937 -0.04044935
0002c0 d9 b2 ef bc 2c b0 ba 3d b7 76 0b 3d 36 dc a4 bc
       -0.029260086 0.09115633 0.034048762 -0.020124536
0002d0 c8 19 c8 3c 93 c9 1c bc bf e7 1e 3d 1c 26 96 bc
       0.024426356 -0.009569543 0.03879523 -0.018328719
0002e0 87 5d fb bb d0 a4 34 bd 06 40 6d bd 83 44 e0 bd
       -0.0076710614 -0.04410249 -0.057922386 -0.109505676
0002f0 50 c7 8a bd a5 8b 13 3c 91 6d fd 3c a6 08 38 bd
       -0.06776297 0.009005462 0.030936034 -0.044930123
000300 64 2c 0b bb 40 cc 87 3d 7f c4 1f bd aa c9 03 3d
       -0.0021236176 0.066307545 -0.039005753 0.032174744
000310 e3 b2 dd bb a3 26 23 bd 10 17 b6 3d 13 a3 3a bd
       -0.0067657097 -0.03983177 0.088911176 -0.045565676
000320 97 7f 1b bd 8e 95 dc 3d e1 d5 25 3c ef 12 37 bd
       -0.037963476 0.10770713 0.0101217935 -0.04469579
000330 81 b3 44 bb 86 8f 0f bd 22 d8 77 bc 23 c0 10 3d
       -0.003001422 -0.035048984 -0.015127214 0.035339486
000340 c3 5b 44 3c 6e b8 26 3b 1e bb 47 bd 86 65 09 bd
       0.011984768 0.0025439519 -0.048762433 -0.033544086
000350 09 1b ad bd d6 97 ce 3d b1 02 8c 3d c0 36 7d bd
       -0.08452422 0.10087554 0.06836451 -0.06181979
000360 ee 61 e9 3c 89 31 c6 bd 2a 2c e5 bd 10 42 9e bd
       0.02848908 -0.09677417 -0.11190064 -0.07727444
000370 6e 3b 60 bd aa bb c7 bc 12 b1 b8 3d 23 b1 c6 3c
       -0.054744177 -0.024381477 0.090181485 0.024254387
000380 0e 94 ff 3d c2 03 05 3c 6f dc b0 3c 6a 0e 4a bd
       0.12479411 0.008118572 0.021589486 -0.049330153
000390 2d 6f 2c bd 34 10 84 bb 48 e8 2d bc 89 ff 3d 3d
       -0.042098213 -0.004030252 -0.010614462 0.046386275
0003a0 6a f1 37 3d e2 8a 0f be 31 26 80 bd d4 c3 9c bc
       0.044907965 -0.14017823 -0.062572844 -0.019136347
0003b0 e9 2d a9 bc 81 6b 88 3c d6 d3 5a 3b 90 98 8f bc
       -0.020651774 0.016652824 0.0033390424 -0.017528802
0003c0 62 f1 da bd 0f df 79 39 82 99 8f 3d 06 31 54 bd
       -0.10690571 0.00023829586 0.07011701 -0.051804565
0003d0 20 6d 1f 3d f7 70 be 3d 9c 95 11 be 9a b9 79 3d
       0.03892243 0.0929889 -0.14217228 0.06096802
0003e0 e2 f6 cd 3d c0 8e 53 bd 8c 16 55 3d ac a5 ba 3d
       0.10056855 -0.05164981 0.052023456 0.09113631
0003f0 70 a2 fd 3b 95 dd 88 bd 9b 2c cd bd 35 c3 3f 3d
       0.0077403113 -0.066828884 -0.100182734 0.046817023

layer1.0.bn2.weight f4 [16]
000000 ea 5d 78 3f e5 6e 85 3f e5 27 90 3f d0 de 80 3f
       0.970183 1.0424467 1.1262175 1.0067997
000010 78 cb 8f 3f 61 db 8a 3f cd 18 8e 3f 05 c5 84 3f
       1.1233969 1.0848199 1.1101319 1.0372626
000020 1f 72 99 3f 35 71 72 3f fa 4b 74 3f ce 70 79 3f
       1.1987952 0.9470399 0.9542843 0.9743775
000030 13 87 7a 3f 9c c0 7f 3f c6 6a 74 3f 69 48 88 3f
       0.97862357 0.99903274 0.95475423 1.0647098

layer1.0.bn2.bias f4 [16]
000000 5e 62 f7 bc 3e a3 84 3d 06 7d a2 bc 74 88 14 3e
       -0.030198272 0.064764485 -0.019835006 0.14505178
000010 50 c0 78 3d 44 97 0b be ab c2 d1 3d e9 bf 74 bd
       0.06073028 -0.13631922 0.10242208 -0.059753332
000020 f6 ca 6b 3d 15 d6 f8 bc a5 1c f9 bc 87 cd da bc
       0.057566606 -0.03037552 -0.030409167 -0.026709331
000030 b8 3e 3a bd 30 62 f6 3c 70 ab 03 bd 72 90 15 be
       -0.04546997 0.030076116 -0.032145917 -0.14605883

layer1.0.bn2.running_mean f4 [16]
000000 ea 29 b7 3e 29 af a0 be ac 11 36 be 69 29 c1 be
       0.35774165 -0.31383637 -0.17780179 -0.37726906
000010 23 69 2e bf f1 8d 15 3d 0d 97 36 bf ef 34 1a be
       -0.68129176 0.03651232 -0.71324235 -0.15059255
000020 4a 88 76 bf 50 d6 c5 be 45 8f ba bc 15 58 7e be
       -0.9630171 -0.3864007 -0.022773394 -0.24838288
000030 f0 75 dd bd 76 d2 b0 be 72 ff 66 bf 5b e5 a7 3e
       -0.108135104 -0.3453557 -0.9023353 0.32792172

layer1.0.bn2.running_var f4 [16]
000000 2c a3 8c 3e d0 55 ea 3e 7a 6d 92 3e 0b 6a b1 3e
       0.2746824 0.45768595 0.2859915 0.34651217
000010 64 76 dd 3e a5 90 3b 3e 9c 22 3f 3f f2 5d eb 3e
       0.43254387 0.18316896 0.74662185 0.45970112
000020 ff 8c 38 3f 0a d0 f4 3e a9 a7 0c 3f 0d 0e 8b 3e
       0.7209014 0.4781497 0.5494333 0.27159157
000030 54 1c 8e 3e 17 04 64 3e d9 37 62 3f 35 7b e9 3e
       0.27755988 0.22267185 0.88366467 0.45601812

layer1.1.conv1.weight f4 [16, 16, 3, 3]
000000 d8 9e 24 bc ae 0a 1f 3d 7d 4b 2d bd 35 3d 9c bd
       -0.010047637 0.038828544 -0.04230832 -0.07628862
000010 a0 22 62 bd d3 ef fa 3c 14 0b 62 bd ec 4d d6 bc
       -0.055208802 0.030631935 -0.055186346 -0.026160203
000020 fe 9c d0 3b 7e 7c 86 3d e3 d4 87 bc 3e cf a2 3d
       0.006366371 0.06566714 -0.016581004 0.079496846
000030 61 4a 01 3e ab 46 91 3c 88 3a 64 bb 27 2f ab 3d
       0.1262603 0.017733892 -0.0034824926 0.08358603
000040 4e d5 30 bd 97 4e 88 bd 0c 2a 6c bd 35 65 70 bd
       -0.043172173 -0.06655615 -0.057657287 -0.05869027
000050 33 7d 71 bd 67 04 8a bd 42 bb 0d 3b 53 63 6e bd
       -0.05895729 -0.06739121 0.0021626507 -0.05820019
000060 4a 67 5a bd 69 34 84 3d a1 64 4b bd e5 f2 d2 bd
       -0.05332116 0.06455309 -0.049656514 -0.10300235
000070 19 95 18 bd 82 9d 72 3d 44 be d5 bd 6a 64 91 3d
       -0.037251566 0.059232242 -0.10436681 0.070992306
000080 71 55 bc bc be 8c 8f 3c b6 5a b9 3d 31 7c a5 3d
       -0.02298996 0.017523166 0.09050505 0.08080328
000090 5f f8 77 3a 33 a6 64 bd 24 21 b0 bd d2 1b 90 3d
       0.00094593124 -0.055822562 -0.08600071 0.07036556
0000a0 24 33 51 bd 79 38 b5 bd d3 12 f5 bc 6d 0b 9d bb
       -0.051074162 -0.08848662 -0.029916203 -0.004792622
0000b0 3c 7b b9 bd 77 d2 b9 bc 52 03 de 3b 9a d3 5c 3d
       -0.09056708 -0.022683365 0.006775298 0.053912736
0000c0 ad df 77 bd ab cb a2 bc bd 51 00 3d d3 bd 1c bd
       -0.06051605 -0.019872507 0.03132795 -0.038266968
0000d0 42 57 c8 bc 0c c2 5f bd 8a c1 13 be 86 5f 1a bd
       -0.02445567 -0.054628417 -0.14429298 -0.037688754
0000e0 75 49 2b 3c 2f e2 15 be 70 b9 21 bd 01 71 36 3d
       0.010454525 -0.14637063 -0.039483488 0.044541363
0000f0 b4 fd 0f be 10 22 b8 bd 38 21 71 3d 1c de b5 bd
       -0.14061624 -0.08990872 0.05886957 -0.088802546
000100 1f 32 43 3d de 47 be 3d 26 4c 89 bd 51 58 a7 3d
       0.04765522 0.09291051 -0.06703977 0.08171142
000110 7e 21 c8 3c 72 72 b5 bd 58 30 dd 3c 45 c0 3c 3d
       0.024430033 -0.08859719 0.027000591 0.0460818
000120 a0 3b 48 3d 91 03 e9 3d dc 1e 27 bd 82 7f ff 3d
       0.048884988 0.11377633 -0.040800914 0.12475492
000130 03 76 e9 bc fa fe 72 bd f9 f8 87 3d 4c 43 f7 3c
       -0.028498655 -0.059325196 0.06639285 0.030183457
000140 97 f2 19 be 0c 3c cf bc 24 5a b6 3d b2 4a 14 bd
       -0.15033947 -0.025297187 0.08903912 -0.036204048
000150 92 aa d5 3d 1b d1 f0 bc f0 89 73 3d eb 21 9d 3d
       0.10432924 -0.029396584 0.05945772 0.07672485
000160 cc 49 1a bd a3 c3 7e bd 65 00 0b 3d fb fb a0 bd
       -0.037668034 -0.062198292 0.033935923 -0.078605615
000170 f5 45 93 3c 6b be 1e 3d 9b ca 44 3d ef 2a 27 3d
       0.017977694 0.038755815 0.048044782 0.04081243
000180 d0 23 22 3d 20 a4 2c bd 8d a5 31 bd 9b cc c0 bc
       0.039584935 -0.04214871 -0.043370772 -0.023535063
000190 a8 dd e6 3a f7 79 de 3c 9a 3f 06 3d 4b 12 97 bd
       0.0017613666 0.027157767 0.0327755 -0.07376536
0001a0 1f e2 86 3d ff f9 6a 3d a5 76 b6 3d f3 37 e3 3c
       0.06586098 0.05736732 0.089093484 0.02773664
0001b0 eb d6 6a bd 01 9f a9 3c 68 d1 f6 bd 26 e4 19 3d
       -0.057333868 0.020705702 -0.1205166 0.037571095
0001c0 3e 85 53 bd 93 af 76 bd 1d f8 15 bc 69 f7 96 3c
       -0.05164074 -0.060226034 -0.009153393 0.018428521
0001d0 b1 c4 05 bc f8 5b ea 3d 82 90 79 bd 0c ae 9a bc
       -0.008164571 0.11443323 -0.06092883 -0.01888182
0001e0 76 52 cf 3d e7 c3 ff bc c8 98 37 bd 3b d6 37 3d
       0.1012315 -0.031221343 -0.044823438 0.04488204
0001f0 95 72 14 bd 65 61 c4 3c 99 b1 e1 3c 2f c7 5d 3d
       -0.036242086 0.023972223 0.027550505 0.054145034
000200 b0 c5 bf 3c a6 ee 1f bd 3c 58 1d bd fd 0c 82 3d
       0.023409694 -0.039045952 -0.038414225 0.063501336
000210 e6 d1 db 3d 8e 8e f8 ba 87 4d 49 bd 00 77 b6 bd
       0.10733394 -0.0018963383 -0.0491462 -0.08909416
000220 dd 38 bd 3c fb b1 ff 3d e5 21 ce bd 88 17 48 3b
       0.023098404 0.12485119 -0.100650586 0.0030531604
000230 6f f7 61 bc 73 aa 90 bc a3 9f 17 bd 8b b9 ca bc
       -0.013791903 -0.017659402 -0.037017476 -0.024746677
000240 52 1b d7 bc c9 9d f3 bc 93 e0 a6 bd 04 ef 2c bd
       -0.026258145 -0.029738324 -0.08148303 -0.04222013
000250 2e 63 9b bd 41 4e cd 3c ec 28 9b bd 6b 8a 0b 3d
       -0.075872764 0.025061728 -0.075761646 0.034067553
000260 d6 49 5c 3c 6a 2d 7c 3c 17 11 09 be 6d c0 ea bc
       0.013445338 0.015391687 -0.13385426 -0.028656209
000270 19 c4 cb bd 85 51 c4 bd 6f 9a 90 bd bb 86 b9 bd
       -0.09949512 -0.09585861 -0.07060706 -0.09058901
000280 75 94 98 bc 60 c0 ab 3d 1c d6 97 bd 19 d2 47 3b
       -0.018625477 0.08386302 -0.07413885 0.0030490218
000290 66 21 d8 3c 10 98 47 3d ab 75 e2 bc ea 47 3d bd
       0.026383113 0.048729002 -0.027644 -0.04621116
0002a0 54 3a 86 bd ad df dd bd 03 51 08 be 07 07 10 bd
       -0.06554094 -0.108336784 -0.13312154 -0.03516295
0002b0 6b e3 9f bd 09 16 0d bd ad a2 bc bd 95 8b bb 3d
       -0.078070484 -0.034444842 -0.092107154 0.091574825
0002c0 77 79 b2 bd ea ae e2 bd b9 6b 02 be 9d 0b e8 bd
       -0.08714574 -0.110685185 -0.12736405 -0.1133034
0002d0 3a 39 18 3d 34 91 4d 3d 9a ab d0 bd 55 90 a2 3c
       0.03716395 0.050187305 -0.101889804 0.019844214
0002e0 07 36 26 bd af 33 74 bd 44 13 9c 3d 49 85 22 3e
       -0.04057887 -0.0596196 0.07620862 0.15871157
0002f0 47 ed 5b 3d 09 ae 3a 3d d3 dc 44 3d 92 6f b7 bd
       0.053693082 0.04557613 0.048062157 -0.08956827
000300 88 e9 d8 3c 37 e2 98 3c e9 e6 84 bd 54 f3 5d bd
       0.026478544 0.018662555 -0.06489355 -0.054187134
000310 32 6f b2 3d 03 10 2b bd fe b1 af bd 20 00 8d 3d
       0.08712615 -0.041763317 -0.08578871 0.068847895
000320 09 ff 1d 3d 01 60 a1 3d fc 80 e4 3d 5e a1 1d 3c
       0.0385733 0.078796394 0.11157414 0.0096209925
000330 16 98 39 bc bd 11 92 3a a3 1e fc bd bd 08 53 3d
       -0.011327764 0.0011144202 -0.12310531 0.051522005
000340 a3 7b 72 3d b7 23 87 3d 5c 05 cd bd 68 da 3e bd
       0.05919994 0.06598609 -0.10010788 -0.046595007
000350 86 af 7e 3c fe 2d b2 bd c6 36 71 3d c6 d1 e2 3b
       0.015544778 -0.087001786 0.058890127 0.0069219796
000360 9f 8e 3e 3d 4b 36 f4 3c 75 90 30 3c 2a dd 91 3d
       0.046522733 0.029811045 0.010776629 0.07122262
000370 c5 d7 d6 3c 9c 92 d0 ba de 82 fa bc 88 28 a3 3d
       0.026225934 -0.0015912834 -0.03057998 0.07966715
000380 07 44 9f 3c 54 85 1f 3d a4 ef 04 3d 84 42 bc bd
       0.019441618 0.03894551 0.0324551 -0.09192374
000390 cd b3 4d 3d 5c e9 86 bd 62 04 a8 bd 0f 5e 20 3d
       0.0502203 -0.065874785 -0.08203961 0.0391522
0003a0 44 64 a6 3d c0 a9 94 3d 6f ce 62 bc ce 63 8d bd
       0.08124593 0.0725894 -0.013843163 -0.06903802
0003b0 65 ca b1 bc 71 82 07 bd 71 f1 46 ba 38 da 0d 3d
       -0.021702955 -0.033083383 -0.0007589078 0.034631938
0003c0 6a b9 bd bd 7f c0 c2 3c c0 be 49 bc d5 80 93 3d
       -0.092638806 0.02377343 -0.012313545 0.07202307
0003d0 84 48 e8 3c b9 5e 14 3d 85 90 85 bd be d3 12 3d
       0.02835489 0.036223147 -0.065217055 0.035846464
0003e0 52 81 7c bd 1e 21 52 3b b1 e6 93 bd 4e 75 e4 bb
       -0.061646767 0.0032063196 -0.07221735 -0.0069719916
0003f0 b8 e4 cb bd dc 30 a7 3d 38 f1 79 bd 16 90 77 3d
       -0.09955734 0.08163616 -0.06102106 0.060440145

layer1.1.bn1.weight f4 [16]
000000 cc a2 83 3f c1 38 75 3f be be 7b 3f b7 92 85 3f
       1.0284057 0.95789725 0.98337924 1.0435399
000010 6d 31 7b 3f 6b aa 85 3f 53 5a 81 3f 57 77 6b 3f
       0.9812229 1.0442632 1.010569 0.91978973
000020 9f c1 7c 3f 24 5d 7f 3f f6 3d 6e 3f 08 29 88 3f
       0.9873294 0.99751496 0.93063295 1.0637522
000030 7e 00 87 3f f6 65 80 3f a9 d7 77 3f 5c dd 88 3f
       1.0547025 1.0031116 0.96813446 1.0692554

layer1.1.bn1.bias f4 [16]
000000 c6 bb d1 bd c5 a9 54 bd 4d c1 b7 bc ac 04 ae bd
       -0.10240893 -0.051919717 -0.02243104 -0.08496985
000010 5e f8 10 bd 0e bd 89 3b bf d2 b2 3c 69 c1 7b bd
       -0.03539311 0.0042034453 0.021829007 -0.061463747
000020 b8 2a 9d bd d9 05 09 bd 6a ae b4 bd 01 64 31 bd
       -0.076741636 -0.033452842 -0.08822329 -0.04330826
000030 de e0 8f bc a5 56 1e 3d c8 ff 60 bc d5 40 c5 bd
       -0.01756328 0.03865685 -0.013732858 -0.09631506

layer1.1.bn1.running_mean f4 [16]
000000 e5 ff f7 be 75 ad 38 bf 91 9e 81 bf 01 c1 d0 be
       -0.4843742 -0.72139674 -1.0126516 -0.4077225
000010 62 cc 3f bf aa ef 9c bf 46 be e1 3d fc 30 4a bf
       -0.7492124 -1.226064 0.1102262 -0.78980994
000020 8c d7 87 bf 0e 8d 74 be aa bd b9 3f ad 9d 7b bf
       -1.0612655 -0.23881933 1.4511006 -0.9828747
000030 2a 0b 2b bf ab ca b8 3e ca 53 1d bf 35 40 8c bf
       -0.6681391 0.36092123 -0.61455977 -1.0957094

layer1.1.bn1.running_var f4 [16]
000000 b4 09 4c 3f ae c6 41 3f fb 12 e9 3e 7f 0d 1b 3f
       0.79702306 0.75693786 0.45522293 0.6056747
000010 69 35 14 3f 62 38 8b 3f 5a d3 53 3f a4 4f 53 3f
       0.57894 1.0876582 0.8274437 0.82543397
000020 ef 3b 42 3f 5c f8 0b 3f ed b0 43 3f 56 4e 86 3f
       0.758727 0.5467584 0.7644184 1.0492656
000030 a5 20 ae 3e 10 ed f9 3e 3a 02 12 3f dc 17 f7 3e
       0.3400928 0.48813677 0.5703465 0.4826039

layer1.1.conv2.weight f4 [16, 16, 3, 3]
000000 71 88 6e bc 14 90 c1 bd 47 d2 6a bc 22 d4 17 bd
       -0.014558897 -0.09451309 -0.014332361 -0.03706754
000010 80 3d 5a bc 6f 9c ba bc 52 7b 96 3b 03 74 f5 bd
       -0.013320327 -0.022779671 0.0045923376 -0.11985018
000020 4c d4 07 bd 17 1e 18 bd 2c 3f 9c bd 06 af bc bc
       -0.033161446 -0.03713807 -0.076292366 -0.023032676
000030 cb a9 9c bd c9 a2 c9 bc 9b 65 b9 bd c4 0f ae bd
       -0.07649573 -0.024613755 -0.09052583 -0.08499101
000040 92 be 02 3d 16 cc 77 3d b5 d2 67 3d 7e da 0e bd
       0.031920023 0.060497366 0.05659743 -0.03487634
000050 a5 2a d4 bb c3 f5 94 3d f8 6f a7 bc de bd 17 bd
       -0.00647481 0.07273438 -0.020439133 -0.037046306
000060 b2 22 27 3d 73 52 dd 3c 7d ae 90 bd cb cb 03 3d
       0.040804572 0.027016854 -0.07064531 0.032176774
000070 71 c4 b5 3c b0 61 53 3d 53 29 90 3c e4 f2 29 bc
       0.022188397 0.051606834 0.01759783 -0.010372851
000080 19 31 98 3c c9 e3 45 3e 95 e0 25 3d 92 56 75 3d
       0.0185781 0.19325174 0.04049738 0.059897013
000090 6c f4 5e bd a1 41 b9 bc 31 0a 8b 3c 27 37 85 3c
       -0.054432318 -0.022614302 0.016972633 0.01626165
0000a0 44 02 a5 bc a7 7e 81 bb 69 7f 84 3d 6d 4c 44 3d
       -0.020142682 -0.0039518657 0.06469614 0.047924448
0000b0 07 52 c8 3d 99 4a 3b bd 49 a9 0c 3d 0b 92 ca 3d
       0.097812705 -0.04572544 0.03434113 0.09891137
0000c0 fb ad 95 3c 99 21 46 bd 73 fb f2 3c 1b af d0 3c
       0.018271437 -0.048371885 0.029660916 0.025474122
0000d0 61 3a 21 3d 04 80 b5 3c aa 19 b4 3d 52 d9 b7 3d
       0.039362315 0.02215577 0.087939575 0.089769974
0000e0 b6 99 1e 3d cd 9d 9a 3d 9b b5 ae bd 3c ca 55 bd
       0.03872081 0.07549629 -0.08530732 -0.05219482
0000f0 7b 71 1c 3e 4d c0 ad bd f8 3b ac bd de 82 eb bc
       0.15277664 -0.08483944 -0.08409876 -0.028748926
000100 27 59 25 bc 45 26 8b 3d 15 e9 9a bd 01 76 b8 bd
       -0.010092056 0.06794409 -0.07563988 -0.090068825
000110 91 88 55 bd 1b 1a bb bd d0 c6 c9 bd a1 84 84 bc
       -0.052132193 -0.091358386 -0.098523736 -0.016176524
000120 24 ab 0b 3c 1b 0e 8e bd 07 3d 91 ba 24 ee 1c 3d
       0.00852469 -0.06936284 -0.001108081 0.038313046
000130 d4 9e a1 bd 89 03 a0 bd da 1b 46 3c 13 97 85 bd
       -0.07891622 -0.07813174 0.012091601 -0.06522956
000140 1e bb 07 3c 0a 22 a0 3d 0c 1c 5f 3d 8e f8 ba 3c
       0.008284358 0.078189924 0.054470107 0.022823598
000150 b1 d5 c5 3c df 20 98 bd 40 eb 83 bd a1 da b8 bd
       0.024149748 -0.07428145 -0.06441355 -0.09026075
000160 15 27 db bc 96 4e bd bd be f1 05 be 3e 41 85 bc
       -0.026752034 -0.09243505 -0.13080499 -0.016266461
000170 3b fd 20 3c 9f 1b b4 bd 26 7f fa 3c 7b 7b 9a bd
       0.009826 -0.08794331 0.030578207 -0.07543083
000180 46 d5 a0 bd db 23 68 bd 5f 5c 04 bd 2a 76 b6 3d
       -0.07853179 -0.05667482 -0.032314654 0.08909257
000190 9b 06 e2 bd ce a3 9d 3c c3 03 26 bd 07 55 84 bd
       -0.11036416 0.019243147 -0.04053093 -0.0646153
0001a0 97 b4 fb bd 04 3a e5 3c 0b 33 db 3c 48 42 10 bd
       -0.12290304 0.027981766 0.026757738 -0.03521946
0001b0 f7 6d d7 3c 49 58 2e bd a4 1d 28 3d db f4 ed 3d
       0.026297553 -0.042564664 0.041043893 0.11618968
0001c0 3c a5 cd bc 68 5a 64 3a 4b 3b 24 bd dd 4e 38 3d
       -0.025103204 0.00087109813 -0.04009561 0.044997085
0001d0 78 26 71 bd 9b 5c c4 3d 3e 01 61 bd 57 39 bb 3c
       -0.058874577 0.095879756 -0.054932825 0.02285449
0001e0 c3 75 b6 3d 07 b2 a5 bd 47 7e 3d bd 3c 42 34 3d
       0.0890918 -0.08090597 -0.046263006 0.04400848
0001f0 c6 f3 be 3b 1f 3e ab 3d f1 b4 28 3d c8 e4 e1 bc
       0.0058274 0.08361458 0.041188184 -0.027574912
000200 a6 9d 9d 3d f8 94 8e bd ea 01 2a bd c5 c3 84 3d
       0.07696085 -0.06962007 -0.04150573 0.064826526
000210 3c fb 00 3d af ea e6 3d 81 76 1e 3e 41 51 dc b9
       0.031489596 0.11275231 0.15474893 -0.0004202221
000220 d3 59 bb bd 2d 60 4a be ee f1 8c bd 21 37 98 bd
       -0.09147992 -0.1976325 -0.06882082 -0.0743239
000230 d7 1c 37 be a5 ab 10 3d 65 0c 4c bc 60 d7 bd bd
       -0.17882095 0.035319943 -0.012454127 -0.09269595
000240 9c a8 91 bc b5 63 32 bd fe 68 37 bd cc ea 07 3a
       -0.017780595 -0.04355212 -0.044777863 0.0005184829
000250 ac 8e d8 bd d7 06 5d 3c 08 08 8e bd 83 c1 7b bd
       -0.105740875 0.0134904 -0.069351256 -0.061463844
000260 ee 43 d0 3d 14 5a ba 3b a4 44 7e bc f0 87 d4 3d
       0.101692066 0.0056870077 -0.015519295 0.103774905
000270 a0 73 1d 3d ff 0c e1 bd f7 a0 bd 3d a4 d9 2d bc
       0.038440347 -0.10988807 0.09259217 -0.010610972
000280 59 80 8f bd 43 f0 cd bc 83 e5 b3 bd ab de a5 3d
       -0.07006902 -0.02513898 -0.0878401 0.08099111
000290 48 7b 8b 3d b2 53 f6 3c 37 16 83 3d e1 f5 a2 bd
       0.068106234 0.030069206 0.064007215 -0.07957054
0002a0 2f cf cd 3d 49 32 1b 3d a6 ef 4e bd ad 1b 2c 3e
       0.10049283 0.037889753 -0.050521515 0.16807432
0002b0 d0 90 dc bc f4 21 31 bd 09 eb 0d bd 5b 97 f8 3b
       -0.02692452 -0.04324527 -0.034647975 0.0075864024
0002c0 26 8f e4 3c 75 66 e6 bc 1b 65 bf bd 9b 8d bf 3d
       0.02790029 -0.028125027 -0.09345456 0.09353181
0002d0 61 91 b3 3d e4 0e 8f 3d 49 9a 86 bd e4 a6 d7 3c
       0.08767963 0.06985262 -0.06572396 0.026324697
0002e0 b7 57 d2 bd e0 d0 a1 bc 5c 19 05 3d 4a 9c 02 be
       -0.102706365 -0.01975292 0.032494888 -0.12754932
0002f0 71 13 e6 3c a4 6c be 3d b1 64 3d bd 32 8f 13 3e
       0.028085442 0.09298065 -0.046238605 0.14410093
000300 af 4b 87 3d 0f 15 80 3c 8a ec 6e 3d 99 06 6a 3c
       0.066062324 0.015635042 0.05833105 0.0142838
000310 94 74 8b bd a7 c6 d7 3d 02 6e aa bd c7 f7 64 3d
       -0.06809345 0.10535937 -0.083217636 0.05590036
000320 c0 da 11 b9 00 40 8e 3d 8a bd ae bc 9d b2 05 be
       -0.00013909768 0.06945801 -0.021330614 -0.13056417
000330 2e 90 8f 3d 1d 0f a6 bd 2f 56 83 bd d0 66 08 bd
       0.07009922 -0.081083514 -0.064129226 -0.033301175
000340 df 7d e5 3c 7b b8 9b 3d 5a ce 5e bc d8 35 5b bd
       0.028014122 0.07603546 -0.013599003 -0.053518146
000350 83 d9 93 3d 0d c4 f1 bc 53 df 59 bd e2 3f 27 3d
       0.072192214 -0.02951243 -0.053191494 0.040832408
000360 7c b8 96 3d 5b 0a 8d 3d 04 8c 87 3d b0 f4 6a bc
       0.07359406 0.06886741 0.06618503 -0.014340565
000370 08 74 cb 3d 6e 23 6f bc 68 c5 1e bd a4 a9 15 bd
       0.099342406 -0.014595849 -0.03876248 -0.036538735
000380 ff 83 b8 bd ea bf e8 bc 7d 47 0f 3d c6 44 8b 3d
       -0.09009551 -0.028411824 0.034980286 0.06800227
000390 b3 b3 ba bd f0 a3 16 bd e1 89 f4 3d 58 c7 ec bd
       -0.09116306 -0.036777437 0.11940361 -0.11561459
0003a0 fc 2a 0e bc 4e b7 88 3d 1d bc c8 bd f0 84 8d 3d
       -0.00867724 0.066755876 -0.09801505 0.069101214
0003b0 0b 78 88 3c 04 9e ac bd c0 50 92 bc db 69 fd bb
       0.016658803 -0.084285766 -0.01786077 -0.007733566
0003c0 f6 2a ae 3c 5c 39 a2 3c dc 35 34 3d 10 6e a3 bd
       0.02126072 0.019802742 0.043996677 -0.07979977
0003d0 44 8a 43 bd b8 35 ce bb a7 1d b6 3d 4c 8c 50 bd
       -0.047739282 -0.006293025 0.088923745 -0.050915048
0003e0 02 70 01 3d 62 b5 a2 3a f6 b7 47 be c4 8b 02 bd
       0.03160096 0.0012413675 -0.1950377 -0.031871572
0003f0 64 46 14 3c bc 7a ca bd 4d 80 3f bd 19 4d 00 bd
       0.009049986 -0.09886691 -0.046753217 -0.031323526

layer1.1.bn2.weight f4 [16]
000000 eb 53 89 3f c3 a4 7b 3f 90 71 87 3f e6 ed 87 3f
       1.0728735 0.9829828 1.0581532 1.0619476
000010 76 81 81 3f aa 12 79 3f f9 e9 8c 3f e1 8b 85 3f
       1.0117633 0.97294104 1.1008903 1.0433313
000020 62 31 84 3f ff ea 88 3f 73 d1 80 3f 9a bb 7b 3f
       1.032757 1.0696715 1.0063919 0.9833313
000030 b5 58 91 3f a9 28 87 3f ab 35 90 3f f3 9d 83 3f
       1.1355196 1.0559283 1.1266378 1.0282577

layer1.1.bn2.bias f4 [16]
000000 01 08 14 3e 62 02 ca 3d 91 8a 90 3d 7f 37 20 3e
       0.14456178 0.09863736 0.070576794 0.1564617
000010 b7 c6 39 3d d4 62 d0 bc aa c1 06 bc 45 d6 fe bd
       0.045355525 -0.02543775 -0.008224884 -0.124432124
000020 3a bf fe bd 69 9c 39 bd 98 c1 18 3e 24 50 9f bd
       -0.12438817 -0.04531518 0.149176 -0.077789575
000030 5a d8 85 bd 0c 33 02 bd 04 49 1e bc 18 7f 93 3d
       -0.065354064 -0.031786963 -0.009660963 0.072019756

layer1.1.bn2.running_mean f4 [16]
000000 03 93 c8 be ed 69 28 3c ab 3a 59 be 37 40 2c be
       -0.3917466 0.010279161 -0.21213786 -0.16821371
000010 3c a3 7a be c0 35 87 be 06 28 a5 be df 2c e9 3c
       -0.24476331 -0.26408195 -0.32257098 0.028463779
000020 f2 90 2e 3e a6 04 7c 3c c8 ac b4 be f0 b8 62 3e
       0.1704748 0.015381968 -0.35288072 0.2214086
000030 84 af bf bd 4b c9 cf be 27 b4 90 3d d0 b8 85 be
       -0.09359649 -0.40583262 0.07065611 -0.26117563

layer1.1.bn2.running_var f4 [16]
000000 de 8d c3 3e c7 ab a8 3e f4 ec d9 3e f5 ad b1 3e
       0.38194174 0.32943556 0.42563593 0.3470303
000010 3c 13 05 3f ab 61 34 3f 1f bd 8e 3e e2 92 af 3e
       0.51982474 0.7046153 0.27878663 0.3429175
000020 33 60 f5 3e 7d 64 c2 3e 66 03 93 3e b7 9e ba 3e
       0.47924957 0.3796729 0.2871353 0.36449215
000030 fb a0 4e 3e 79 d4 7e 3e 53 d6 d4 3e d4 1d ee 3e
       0.20178597 0.2488574 0.41569766 0.46507132
